ufc_prediction_model.pth (torch, 47345 bytes, 5 tensors)

layer1.weight f4 [128, 20]
000000 09 a5 9b bc c4 af 7a be bd f4 e5 bd 9d 06 23 be
       -0.018999593 -0.24481112 -0.11228321 -0.15920492
000010 09 6f 33 be c3 33 23 3e 32 a3 b7 3e b6 3b d7 bd
       -0.17522825 0.15937714 0.35866696 -0.10509436
000020 34 19 8f 3e 94 8f 72 bd 89 77 1b 3e bd f7 74 be
       0.27948916 -0.059218958 0.15182318 -0.2392263
000030 c7 17 1a be 48 67 67 3e 40 0b b3 bd f8 7f 4f be
       -0.15048133 0.22597992 -0.0874238 -0.2026366
000040 78 31 2f bd f2 97 c5 3e bc 50 3c be 9a 70 dd 3d
       -0.042771786 0.38592488 -0.18390173 0.10812493
000050 78 80 1f 3c e2 31 89 3e 26 fb 10 be 3a b9 34 3e
       0.009735219 0.2679587 -0.14158306 0.17648783
000060 35 c3 84 3c 19 8b 1e be 88 b3 f2 bc 22 28 ea bd
       0.016206363 -0.15482749 -0.029626623 -0.11433436
000070 49 50 9e be 1f 5d db 3d 28 2a 99 3e 58 b8 4c bd
       -0.30920628 0.10711121 0.29914975 -0.04998049
000080 ff 30 1f 3e b3 14 e9 3d 1c 75 8a 3d a6 b7 ad 3e
       0.15546034 0.11380901 0.06760618 0.33929175
000090 05 b5 1b be b8 19 a5 3e 8c 5d e0 3d a7 07 f4 3c
       -0.15205772 0.32246184 0.10955343 0.029788805
0000a0 dd 68 5a bd ed 26 33 be 98 64 0d be 5d ca 89 bd
       -0.05332266 -0.17495318 -0.13807905 -0.06728051
0000b0 d7 b0 2c be ed 0a 2c bc 9f a2 8e be fc b6 83 3e
       -0.16864334 -0.010500652 -0.27858445 0.25725543
0000c0 e7 f5 34 bc 2e 79 06 3d e2 5e cd 3e 24 3d 3d be
       -0.011044956 0.03283041 0.40111452 -0.18480355
0000d0 94 74 be 3d 0a 4f 07 bf 80 40 eb 3d e6 e6 42 be
       0.09299579 -0.5285498 0.11486912 -0.19033393
0000e0 b0 59 92 be d0 cb 51 3e 67 f3 0d bd c4 9a 9f 3d
       -0.2858405 0.20487905 -0.034655955 0.07793191
0000f0 14 3d f0 3c 08 26 86 3e 6d 22 ff bd 2f a2 14 be
       0.029326 0.2620089 -0.12457738 -0.14514993
000100 36 18 d4 3c 4d 2e 53 3c ab a0 3b be 93 79 c6 be
       0.02589045 0.012889457 -0.18323009 -0.3876463
000110 da ac 11 3e 21 6d 88 3d 1b 39 a8 3d 60 55 ff 3d
       0.14226094 0.0666144 0.08214017 0.12467456
000120 86 87 ae 3e da 44 52 be c5 c5 58 be 0f ac 89 3e
       0.3408777 -0.20534077 -0.21169193 0.26889083
000130 b8 1d 12 3e 66 4d 46 3e 18 45 d2 bd 60 96 ca be
       0.1426915 0.19365463 -0.10267085 -0.39567852
000140 09 a0 98 bd 7c b6 ea bc 1b 3e 6e 3d e4 eb 61 3e
       -0.07452399 -0.028651468 0.058164697 0.22062641
000150 ec 1e cc be ca 8d de 3d 0f a3 02 3e b1 6e 4a bc
       -0.39867342 0.10866888 0.12757514 -0.012355492
000160 de 41 20 be 5d 71 cf bd 7d b0 9d 3e 92 13 12 be
       -0.15650126 -0.10129044 0.30798712 -0.14265278
000170 75 51 8b 3e 2c b6 0f be b8 ab 52 bd 14 e7 9c 3e
       0.27210584 -0.14034337 -0.051433295 0.3064505
000180 9b 5a 26 3d 3e 0e 87 3e 46 d2 cb be 20 9a a0 3b
       0.04061375 0.26378053 -0.39808863 0.0049011856
000190 88 66 07 3e a2 9f a2 be 45 ac 36 3e be 57 15 bc
       0.13222706 -0.31762415 0.17839153 -0.009115158
0001a0 31 4b 50 3e 4c d5 45 3d a5 78 ca 3c 79 4e c1 be
       0.20341183 0.04829912 0.02471573 -0.37755182
0001b0 a7 32 b2 3c 8d b7 b1 3d 04 60 b5 3d 15 2c ef 3d
       0.021752669 0.08677588 0.08856204 0.1167833
0001c0 5a 3e f7 bd ef da 1f bf f5 5f af 3d 1d 7d 68 be
       -0.120724395 -0.6244344 0.08563224 -0.22703977
0001d0 87 7c 12 be 2f 58 b8 3d f3 5e c9 bd 78 90 92 3e
       -0.14305316 0.09001195 -0.09832563 0.28625846
0001e0 c1 9f 08 be 3f 9e 5f be d8 27 63 be 9f 04 97 be
       -0.13342191 -0.2183771 -0.22183168 -0.29495713
0001f0 4a 4f cc bd 43 de 39 3e 6c 56 7c 3e ee bf 28 bc
       -0.09976061 0.18151192 0.24642342 -0.010299666
000200 0b 33 74 3e a6 b4 82 be c4 38 34 3f 1b 54 38 be
       0.23847596 -0.2552845 0.7039912 -0.18000834
000210 d7 c5 b7 3e 93 ca 27 3d cd de b4 be a2 4d af be
       0.35893127 0.040964674 -0.35326234 -0.34238917
000220 6b 89 1c be ff bf 00 3f 0c 7a 36 be 85 6d 57 3e
       -0.15286796 0.5029296 -0.17819995 0.21037872
000230 0a 23 b2 be dc 48 9a 3d 27 3f 90 3e fa a9 2f 3e
       -0.34792358 0.07533428 0.2817318 0.17154685
000240 14 01 67 be f4 33 88 be 87 2c 6e 3e 8f 2d 05 be
       -0.22559005 -0.26602137 0.23259173 -0.1300566
000250 09 f0 e8 3d 95 b2 99 3d 4a 04 9a be 40 d2 e3 bd
       0.11373908 0.07504765 -0.30081397 -0.111240864
000260 72 99 b3 be 5d 78 51 3e e8 f0 1e bf 1a ba 65 be
       -0.35078007 0.20456071 -0.62086344 -0.22434273
000270 9a 5f bf 3d 6c b4 9e be b5 52 85 3e 29 de de be
       0.093444064 -0.30997026 0.26039663 -0.4352887
000280 98 84 ad bd f6 47 50 3d 63 8b 58 3e 56 68 84 bd
       -0.08472556 0.050849877 0.21146922 -0.06465213
000290 12 b4 d0 bc 37 89 67 be 8f a0 c4 bd 05 60 74 3e
       -0.02547649 -0.22610937 -0.096009366 0.23864754
0002a0 96 76 87 be 6c f2 57 bd 0a 36 23 3e 4b f3 2c 3e
       -0.2645766 -0.052721426 0.15938583 0.16889684
0002b0 57 bf 6f 3c ce 91 42 bd a9 18 84 3e 8a ca 21 3f
       0.014633021 -0.04750233 0.25800064 0.63199675
0002c0 d0 f6 87 3b 6b 4d c8 3c fb 0c 3e 3d d2 ac 2d be
       0.0041492954 0.024450978 0.046399098 -0.16960457
0002d0 6a d3 f9 bd 89 62 83 3e 60 2a 57 bd 3a ac ac 3e
       -0.12198527 0.25661114 -0.052530646 0.33725148
0002e0 c5 25 53 be 05 e8 70 be 29 84 a2 3d ba c9 cb bd
       -0.20619877 -0.23526008 0.07935364 -0.09950586
0002f0 d9 20 e8 bd 9b 00 88 bc 2b a3 1f 3e 5b 4f f4 3d
       -0.1133439 -0.016601851 0.15589587 0.11929198
000300 dc 32 97 3d 30 25 28 3e f8 c2 f5 3d 2e 07 31 3e
       0.073827475 0.16420436 0.12000078 0.17287895
000310 66 03 91 bd 9a b6 c5 3c 88 c4 55 be ae 15 77 be
       -0.07080726 0.024134923 -0.20875752 -0.24129364
000320 e8 85 cc bd a1 5b 92 3c 40 da fc 3d f2 1c 24 bd
       -0.09986478 0.017865958 0.123463154 -0.040066667
000330 cc cd ff 3d d7 b4 73 3d d0 7b 74 3d ca a4 5f be
       0.124904245 0.059498634 0.05968839 -0.21840206
000340 66 8d 8f be 08 ac 85 bc eb 2c b4 3e 55 17 ed 3c
       -0.28037566 -0.016317382 0.3519052 0.02894179
000350 8f ba d2 3e 4b 1d cb 3d b0 6b c3 3e 20 5e 0a 3f
       0.41157958 0.099176966 0.38168097 0.54049873
000360 6c a1 5d bc 44 cb 4b 3e f0 31 0b be 52 3d 60 be
       -0.0135272555 0.19901758 -0.13593268 -0.21898392
000370 30 cb 95 3e 9b 72 55 be 10 13 68 be 24 08 6d be
       0.29256582 -0.208445 -0.22663522 -0.23147637
000380 69 53 32 3d 05 43 9d 3d 63 ec 57 be 99 82 da bd
       0.043536577 0.076787986 -0.21086268 -0.10669441
000390 e3 1b e8 3d 03 95 e9 bc 6e 40 4d be 33 05 e6 bd
       0.11333444 -0.028513437 -0.20044109 -0.112314604
0003a0 23 81 a2 3d a3 6e 8b be c2 3e 36 be 26 dc 5e be
       0.07934787 -0.27232847 -0.17797378 -0.21763667
0003b0 3f 87 19 be fd f7 b1 bd ee 83 99 3c 7e 8e 1f 3d
       -0.14992999 -0.08689878 0.018739667 0.03895425
0003c0 b4 13 00 3e ed 87 a4 be a4 21 af bd 60 60 a9 be
       0.12507516 -0.32134953 -0.08551338 -0.3308134
0003d0 95 e5 e4 3d f6 ac 17 3e 52 4e c4 bc 09 a8 df be
       0.11176602 0.14812073 -0.023963127 -0.43682888
0003e0 5d 87 79 3e d2 4d e4 bd 20 67 1e bd b4 b6 fe 3c
       0.24368043 -0.111476555 -0.038672566 0.031092979
0003f0 e0 df 67 bc 88 85 85 be ee d3 a1 3c b5 72 c4 bd
       -0.014152497 -0.2607844 0.019754376 -0.09592191

layer1.bias f4 [128]
000000 4c 62 1a be dd cf 06 3e bc 14 8f bd 83 a7 39 3e
       -0.1507656 0.13165231 -0.06986377 0.18130307
000010 10 5b 82 3d 31 69 99 3c 15 67 36 be dd 53 a4 bd
       0.06365025 0.018726917 -0.1781276 -0.08023808
000020 b9 cc 2a be d0 0a 5d bb fb 42 b7 3d 97 2f 18 3e
       -0.16679658 -0.0033728369 0.089483224 0.14861904
000030 f9 6b 53 be cf b5 52 bd 21 c5 42 3d 0f 4f 3b 3e
       -0.20646657 -0.051442917 0.047551278 0.18291877
000040 18 a9 95 bd 73 d8 e3 bd 66 da 80 be 8f 3b 93 be
       -0.07307643 -0.11125269 -0.25166625 -0.28756377
000050 c7 d3 1f be bc 05 e3 bb e3 be 42 3c de e1 8e 3d
       -0.1560813 -0.006928174 0.011886331 0.069766745
000060 34 b4 55 bd 89 15 29 be 9b 1a b3 3b 97 05 49 be
       -0.05217381 -0.16512121 0.005465818 -0.19631039
000070 48 62 b9 b9 fb ed 98 bd 30 a3 c0 3d 75 0f 32 bd
       -0.00035359175 -0.07467266 0.094061255 -0.043471772
000080 d9 62 a5 3d ed f2 46 3e 3a 99 71 be b2 34 05 be
       0.08075494 0.19428606 -0.23593608 -0.13008383
000090 14 b0 7b be 5a f3 16 bd f6 ef bb bc c5 13 32 3e
       -0.24578887 -0.036853172 -0.02294157 0.17390354
0000a0 5f 57 5e 3d 97 dd 8b be 76 e0 d2 3d 06 5c 6e be
       0.054282542 -0.27317497 0.10296719 -0.23277292
0000b0 e1 cc 2a bd 83 89 76 be da c7 2f 3e 7f b5 7c bb
       -0.041699294 -0.24075894 0.17166081 -0.0038560329
0000c0 1a b3 29 3e 13 47 8e 3d 24 f7 07 3d 13 fc b6 bc
       0.16572228 0.0694715 0.033194676 -0.022336995
0000d0 14 7c 18 3e 2d 38 8a be 9a 73 82 be 39 e8 fd 3d
       0.14891082 -0.26995984 -0.25478822 0.123978086
0000e0 0c 1b 70 be 4c d9 10 3d 68 0e d1 bd 04 41 36 be
       -0.23447818 0.03536348 -0.10207826 -0.17798239
0000f0 e5 9c 8b bd f4 80 27 be 93 81 2c 3c 0e c8 2f be
       -0.06817035 -0.16357785 0.01052894 -0.17166159
000100 eb 75 0e be e2 87 b4 bd 7e 98 b4 bd 3f ba 09 be
       -0.1391217 -0.0881498 -0.08818148 -0.13449953
000110 30 a4 21 be 95 c1 28 bd b3 0f 5f be 30 58 81 bd
       -0.15785289 -0.04120024 -0.21783333 -0.063156486
000120 08 31 95 3d cc f9 53 3d 9c 1b 6f bd 0e 32 a5 bd
       0.072847426 0.051751897 -0.05837594 -0.08066188
000130 02 94 e6 bd b2 7f c4 bd c5 32 15 be 91 66 67 3d
       -0.11258699 -0.095946684 -0.14570148 0.0564943
000140 7a 40 d6 bd 84 26 94 be bd 08 fc bc b8 17 db bd
       -0.10461517 -0.28935635 -0.030765885 -0.10697883
000150 df 33 ca 3d 1e d6 b9 3b 15 78 c4 3d e9 9b 2f be
       0.09873175 0.0056712767 0.09593216 -0.17149319
000160 3f c6 91 be 73 0d 0d be 37 74 76 3d 7d 03 ed 3d
       -0.28471562 -0.13774662 0.060169425 0.11572931
000170 30 73 30 be ac df 87 3c ac f9 ce 3c c0 7f 2a be
       -0.1723144 0.016586147 0.025265537 -0.16650295
000180 fd 19 e7 bd 6f 28 9c be a9 1d 2f be 6f 98 a8 be
       -0.11284254 -0.30499598 -0.17101158 -0.32928798
000190 de 81 06 be 70 f5 07 be 1a 55 4f be 81 28 3a 3d
       -0.13135478 -0.1327722 -0.20247307 0.045448784
0001a0 0e 40 af bc 4e 89 c9 bd ab 54 ea 3c 7f 99 d9 bc
       -0.021392848 -0.09840642 0.028604826 -0.02656245
0001b0 48 ea 19 bd 08 56 fa bd 6d 85 2f be 6a 31 84 be
       -0.037576944 -0.122234404 -0.17140742 -0.2581895
0001c0 5b c1 c5 bd 66 e4 a2 3c fe a5 55 bc 33 8d 02 3d
       -0.0965602 0.0198843 -0.013040064 0.03187294
0001d0 24 82 11 be 3f 51 83 39 44 ce 31 be 5f 8f db bc
       -0.14209801 0.000250468 -0.1736384 -0.026801763
0001e0 77 d2 35 be df b2 76 3c f8 37 7a bd cf f2 96 3c
       -0.17756067 0.015057295 -0.061088532 0.018426327
0001f0 9a b4 f7 ba e6 1f 10 be 77 d5 e6 3c 19 8a 85 3d
       -0.0018898428 -0.14074668 0.02817796 0.06520481

layer2.weight f4 [64, 128]
000000 a7 98 08 3d 5f ff d3 3d f0 1f 3e 3e 6c 9a 0f bd
       0.033348706 0.103514425 0.1856687 -0.035059378
000010 e8 88 6c 3e 9a e4 02 bd 29 3c ec 3d 59 f9 56 3e
       0.230991 -0.031956293 0.11534912 0.20993556
000020 62 48 29 3c 64 10 04 3e 44 54 3f 3d 49 41 9c bb
       0.010332199 0.12896878 0.04671122 -0.004768525
000030 19 c5 41 be 6c b1 43 bd 56 58 50 be 16 b9 a5 bc
       -0.18922843 -0.047776625 -0.20346197 -0.020229857
000040 1f ef 5f bd da 01 41 bd 19 4b 89 be 7a 4d f5 3c
       -0.054671403 -0.047120906 -0.26815107 0.02994417
000050 2f 42 6a be d8 c4 03 3e fc 83 9a be 85 76 c0 bd
       -0.2287681 0.12868059 -0.3017882 -0.09397606
000060 14 9e ba 3c 7b dc 07 3e a2 1a 20 3d 0c a7 29 3e
       0.022780456 0.132677 0.0390879 0.1656763
000070 74 ac a6 be de 9b d9 3d ac 12 1b 3e c9 c0 a5 be
       -0.32553446 0.106254324 0.15143842 -0.32373646
000080 25 22 97 be fb a2 bd bd 7c ac 99 be 3f a1 f4 3d
       -0.29518238 -0.09259602 -0.30014408 0.11944818
000090 0a c1 62 bd f3 34 55 3d b1 80 a9 3b 4e 4d aa 3d
       -0.055359878 0.05205245 0.005172812 0.08315526
0000a0 eb c4 bd 3d 85 ed 3f be 8e 9b 0d bd 33 ae bf be
       0.09266075 -0.1874295 -0.034572177 -0.3743759
0000b0 a2 f6 97 3d 57 06 6b be 91 e6 17 3a 24 11 21 3e
       0.07420088 -0.22951637 0.000579455 0.15729195
0000c0 5b 76 b3 3d f4 de 81 3d 09 79 9e 3d cb 36 b8 bd
       0.08762809 0.06341353 0.077379294 -0.08994826
0000d0 52 bf 35 bd dd 92 0b 3e 86 bc 2c be a1 61 01 bf
       -0.04437191 0.13630243 -0.16868791 -0.50539595
0000e0 f8 65 48 bd dd 56 c7 bd 3e 85 da 3d a2 5e 8b be
       -0.04892537 -0.09733365 0.10669945 -0.27220637
0000f0 d3 a4 75 3d ba 37 d3 bd 41 4d b3 3d ec 51 1a bd
       0.05997164 -0.103133634 0.087549694 -0.037675783
000100 4a 47 4f be b9 6f c1 3b fb d8 0b 3e 82 71 a6 bd
       -0.20242038 0.005903211 0.1365699 -0.08127119
000110 a3 df a7 be 96 3e b4 bd ac 10 1c bc ee 73 e2 3d
       -0.3278781 -0.08801 -0.009525459 0.11057268
000120 3a da 49 be cd da 1a be 5c 76 19 bd be 6f 29 bd
       -0.19712153 -0.15122528 -0.037466392 -0.04136633
000130 22 b1 bf be 13 7f 4c 3e 80 b4 1f 3e 1e 9f 60 be
       -0.3743983 0.1997035 0.15596199 -0.21935698
000140 73 c9 5c 3d 2e df 8f 3d 8b 88 b5 3d 55 93 f4 3c
       0.053903054 0.0702499 0.08863934 0.02985541
000150 e4 91 1b 3d 61 69 6c 3b 46 75 60 be 6e bb 0e 3d
       0.03798093 0.0036073553 -0.21919736 0.034846716
000160 f3 a6 4c be d1 35 98 3e 1c 50 d5 3c b6 ca 78 bd
       -0.19985561 0.2972856 0.026039176 -0.060740195
000170 a0 54 61 be 51 a7 ac bd aa 37 c6 3d 11 6c a2 be
       -0.22004938 -0.084303506 0.09678586 -0.31723073
000180 74 ff 2a bc 7e be 28 bf fa b5 81 3d 52 dd 96 bd
       -0.010436881 -0.6591567 0.063335374 -0.07366432
000190 c8 d1 83 bd c6 6a 67 be 91 92 57 3d f4 af 07 bd
       -0.06436497 -0.22599325 0.05263001 -0.033126786
0001a0 7b 88 66 3e 22 03 11 be 01 54 4c bd 80 97 aa 3d
       0.22513 -0.14161351 -0.0498848 0.083296776
0001b0 f9 93 17 3e 02 2e 67 bc 15 cc 7e be 32 f1 ff bd
       0.14802541 -0.01411009 -0.24882539 -0.12497176
0001c0 8e 4e ad 3d 1a 9f a7 3d ee c4 92 3d 89 61 52 be
       0.08462249 0.08184643 0.071664676 -0.20545019
0001d0 43 01 f9 3d 26 73 78 bc 1f 5d 20 be ed 5d 3f be
       0.12158444 -0.015164172 -0.15660523 -0.18688174
0001e0 4d 46 79 bd 54 40 ef 3d 80 05 03 be 32 04 89 bc
       -0.06085806 0.116821915 -0.12795067 -0.016725633
0001f0 ea f4 c9 bc 74 9e 6e bb 78 10 8f 3d eb 5f 3a bd
       -0.024652917 -0.0036410363 0.06985563 -0.04550163
000200 e1 0b 23 3d 8a 2f a0 3d ef 71 18 3e d3 fa 40 3d
       0.03980625 0.07821567 0.14887212 0.047114205
000210 12 c6 0a 3e 0d 27 aa bd 0c cd 7c bc 0e 26 cb 3d
       0.1355212 -0.083082296 -0.015429746 0.09919368
000220 98 dc a2 bd 27 15 e9 3b 99 5e 82 bc b3 3a 05 3c
       -0.07952231 0.0071131173 -0.015914248 0.008131671
000230 3a 78 38 be eb da ed 3c db ec 6d be e9 c0 6b 3c
       -0.18014613 0.029035052 -0.23234884 0.014389255
000240 9c f2 e1 bd 1f 52 05 3d 22 34 e1 bd c1 7f 2e 3d
       -0.11032602 0.03254902 -0.10996272 0.042602304
000250 57 7b cb bd dc e0 e5 3c fe 20 85 bd c0 73 99 bc
       -0.099356346 0.028061323 -0.065004334 -0.018731952
000260 54 4c 68 bd 84 80 97 bd 8c 0e f9 3d bf cd 23 3e
       -0.056713417 -0.07397559 0.12160978 0.15996455
000270 97 b7 1f be f0 b7 84 bd a9 25 a9 3d ca 70 8f bd
       -0.15597378 -0.06480396 0.08259136 -0.07003935
000280 d9 53 37 be 31 2f c0 bc cb 46 af be 12 98 00 3d
       -0.17903079 -0.023460003 -0.34233698 0.031395026
000290 83 ca dc 3d 5c 21 eb bd a8 4a 9d bd 6d da 8f bd
       0.107808135 -0.11480972 -0.07680255 -0.07024083
0002a0 79 c6 a4 3d 9b 6c 16 be 12 97 d7 ba 14 40 0f be
       0.08045668 -0.14689867 -0.0016448221 -0.13989288
0002b0 66 71 b9 bd 81 04 8c be fb 04 18 3e b2 2b 7b 3d
       -0.09054832 -0.27347186 0.1484565 0.061320968
0002c0 69 30 69 bc df 4f 0b bd 8b 50 46 3e 17 ac 1c bd
       -0.014232733 -0.034011718 0.19366662 -0.038250055
0002d0 7e ce 66 3b cd a6 81 3c 2a de 9e 3d 3b 7e 9c bc
       0.0035218294 0.015826607 0.07757218 -0.01910316
0002e0 ac 19 a9 bd 6a c7 27 bc 59 0d cb 3d 1b de 22 be
       -0.0825685 -0.010240415 0.09914655 -0.15905039
0002f0 32 df 96 3d fa 84 09 bd c9 14 56 3d cf 81 79 3c
       0.0736679 -0.033574082 0.052265916 0.015228703
000300 dc a3 b4 3d 9a f7 5d 3d 92 64 58 bd fa c6 83 3d
       0.08820316 0.05419121 -0.052830286 0.06434436
000310 f9 e2 9d be d5 12 95 3d 3b d7 5a 3e 29 86 ad 3c
       -0.3083723 0.072789825 0.21371166 0.021182137
000320 b7 8c 97 bd 25 d8 a8 bc 8f 8b 47 3d a7 3a d7 3c
       -0.07399886 -0.020610878 0.048717078 0.026273085
000330 e1 34 30 be 5f 05 18 3e 7b 92 24 3e 00 ce ee bc
       -0.17207672 0.14845799 0.16071503 -0.029150963
000340 5a 3f c6 3d 1e b2 07 bd 76 fb 0b 3e 6c 5d 46 3e
       0.09680052 -0.03312885 0.13670143 0.19371575
000350 43 1c f2 3c 9a ae 7a 3c 92 88 55 3c 71 31 99 bd
       0.029554492 0.015300417 0.013033049 -0.07480133
000360 33 5b 96 be ec f3 84 3e 74 95 31 3d b1 3d 4e 3d
       -0.29366454 0.25967348 0.04335542 0.050351802
000370 4a 90 1a bc c4 8e bb 3d 00 1f 10 3e f2 03 ce bd
       -0.009433815 0.0915809 0.14074326 -0.10059346
000380 49 10 ab bc 0e b2 dc be 09 38 0d 3e 81 ad 97 bd
       -0.020881789 -0.43104595 0.13790907 -0.0740614
000390 ff 81 a6 3d 1e 56 fb bd ef 35 40 be d3 9e 00 bc
       0.081302635 -0.12272285 -0.18770574 -0.007850367
0003a0 33 8a 60 bb 9b 78 b3 3c c9 fa 69 3d 38 5f e8 3d
       -0.003426206 0.021908095 0.057123933 0.113462865
0003b0 e5 e2 f7 bc 0f db a3 3c 1d 7a 3f be 65 97 96 bd
       -0.030259559 0.020001916 -0.18698926 -0.07353095
0003c0 9e 9e 8f 3d 86 e5 35 3e e7 97 6a 3d 92 a0 de bd
       0.07012676 0.17763337 0.05727377 -0.1087047
0003d0 7d df 67 3d 3b 27 07 3e a0 64 c3 3d 33 dd a4 bd
       0.05660962 0.13198559 0.09540677 -0.08050003
0003e0 aa 8c 8e ba 74 2d 25 3e ab 0e 92 3d 76 2b d2 bc
       -0.0010875661 0.1613062 0.07131704 -0.02565549
0003f0 47 58 d4 3d c1 13 94 bd db 2f 15 3c a3 be 97 3d
       0.103684 -0.0723033 0.009105648 0.07409408

layer2.bias f4 [64]
000000 6f b0 2d 3e 3e 3e 9a 3c 4f 59 83 bc df e9 5e bc
       0.16961835 0.018828508 -0.016033797 -0.013605564
000010 1f 40 85 3d f2 c0 17 be e2 da e9 bd ba f8 90 3d
       0.06506371 -0.14819697 -0.11418702 0.07078691
000020 64 98 07 3e e9 7d df 3d 8a a8 44 3e 1b f8 4b bd
       0.13241726 0.10912687 0.19204918 -0.04979716
000030 b8 0e 76 3c f7 87 c9 bd 95 06 f0 3d 48 a8 e4 3c
       0.015018158 -0.09840386 0.117200054 0.027912274
000040 b9 2e 9f 3d c1 a6 ae bc 83 8d ad bd c2 cd 23 3e
       0.077725835 -0.021319749 -0.08474257 0.15996459
000050 06 51 4d 3d 7e e1 f3 ba 35 b9 2d bd 85 7f aa 3d
       0.050126098 -0.0018606631 -0.042412955 0.08325104
000060 4f 72 86 bd 3e 07 b6 3d d2 c0 df 3d 03 7f 48 3e
       -0.065647714 0.088881 0.109254494 0.19579701
000070 9c 5e be bc 94 22 3a bd eb 71 bb 3d 9d af d2 3d
       -0.023238473 -0.045443133 0.091525875 0.10287402
000080 fd 01 13 3e 15 cf a9 3c 5c b2 c7 3c 60 72 13 bd
       0.14356227 0.020728627 0.02437704 -0.03599775
000090 b0 b1 89 bc 0f ca 2a bc 17 b5 57 3e 7b 25 15 be
       -0.01680836 -0.010424151 0.21065174 -0.14565079
0000a0 f4 28 cf 3d 03 a7 9f 3d 10 e3 e3 bd 1c 93 24 3e
       0.10115233 0.07795527 -0.11127293 0.16071743
0000b0 35 d7 3e 3d 12 42 0d 3e 0a 48 c9 3d eb fb fe 3d
       0.046591956 0.13794735 0.098281935 0.12450393
0000c0 14 34 1a 3e 16 1c 05 3b 21 45 54 3e 52 01 eb 3b
       0.15058929 0.002031093 0.20729496 0.0071717883
0000d0 2f d9 f9 ba 72 71 e6 3d bc 23 a5 3d 5a 75 4a bd
       -0.0019061918 0.11252107 0.080634564 -0.04942832
0000e0 b7 94 02 3e 92 e4 c6 3d a1 97 13 3d 07 b3 5d 3d
       0.12752043 0.09711565 0.036033276 0.054125812
0000f0 2c a0 a2 bd 0a bc 63 3d 88 f7 3f 3d a4 82 35 3e
       -0.079407066 0.05559925 0.046866924 0.17725617

output_layer.weight f4 [1, 64]
000000 25 5d 37 3e 01 85 cb 3d a4 42 10 be 89 5c 98 be
       0.17906626 0.09937478 -0.14087921 -0.297581
000010 f1 b4 98 3e 39 b3 56 3b 69 2e 1d be 31 87 60 3d
       0.29825547 0.0032760634 -0.15349735 0.05481643
000020 54 f9 d1 be 51 37 63 be 6c 2f ac be 3b 30 fa 3d
       -0.41010535 -0.2218907 -0.3362993 0.122162305
000030 c9 6f 05 bf d9 0f 1f be 42 35 68 be ef 74 ac 3d
       -0.52123696 -0.15533389 -0.22676566 0.08420741
000040 33 82 e5 be 3e a9 6e bb 9e 9f f4 bc 97 38 b3 3e
       -0.44825897 -0.0036416794 -0.029861268 0.35004112
000050 46 66 98 3e 76 f3 64 be 98 2d 15 be 8c 09 a6 3d
       0.29765528 -0.22358498 -0.14568174 0.0810729
000060 32 db 0c bd b0 46 a7 be 01 cf ef be ce 53 7b 3e
       -0.03438873 -0.32671118 -0.4683762 0.24543688
000070 e4 21 0d be 6d 0c 4b bd 48 d6 4d be c2 c9 45 3e
       -0.1378246 -0.049572397 -0.20101273 0.19315246
000080 2f 24 f7 3d df 82 7e 3e 3b 65 07 be a8 fd 78 be
       0.12067448 0.24854611 -0.1322221 -0.24315512
000090 ec b1 7f be ea 82 f5 3e 0e 51 ba 3e 4c 6f 9c be
       -0.24970216 0.47951442 0.36389965 -0.30553663
0000a0 be ea f8 3d a0 8e bf 3e a0 a0 0c bc c4 f1 c2 3e
       0.121541485 0.37413502 -0.008583218 0.38075078
0000b0 49 1e 83 3e ec b0 d4 3e 6f 84 ff 3d 33 eb 2b 3e
       0.25609043 0.4154123 0.124764316 0.1678894
0000c0 4a ec 59 3e 77 04 9d be 3c 8a c0 3e a1 86 44 be
       0.21281543 -0.3066747 0.37605464 -0.19191982
0000d0 b3 34 1b bd 83 b8 e6 be 09 4d bc be 4e 3a 9e be
       -0.037892055 -0.45062646 -0.36777523 -0.30903858
0000e0 b6 c5 a9 3e 22 9a 19 3e 51 5f 4c 3e 47 07 b1 3e
       0.33158654 0.15000203 0.19958235 0.34575865
0000f0 99 17 8f be e3 d4 01 be 4e 39 88 be 0a 87 61 be
       -0.2794769 -0.12678866 -0.2660622 -0.2202417
